{"format": "torch", "nodes": [{"name": "model", "id": 140045483893712, "class_name": "GPT2LMHeadModel(\n  (transformer): GPT2Model(\n    (wte): Embedding(50261, 768)\n    (wpe): Embedding(1024, 768)\n    (drop): Dropout(p=0.1, inplace=False)\n    (h): ModuleList(\n      (0): Block(\n        (ln_1): LayerNorm((768,), eps=1e-05, elementwise_affine=True)\n        (attn): Attention(\n          (c_attn): Conv1D()\n          (c_proj): Conv1D()\n          (attn_dropout): Dropout(p=0.1, inplace=False)\n          (resid_dropout): Dropout(p=0.1, inplace=False)\n        )\n        (ln_2): LayerNorm((768,), eps=1e-05, elementwise_affine=True)\n        (mlp): MLP(\n          (c_fc): Conv1D()\n          (c_proj): Conv1D()\n          (dropout): Dropout(p=0.1, inplace=False)\n        )\n      )\n      (1): Block(\n        (ln_1): LayerNorm((768,), eps=1e-05, elementwise_affine=True)\n        (attn): Attention(\n          (c_attn): Conv1D()\n          (c_proj): Conv1D()\n          (attn_dropout): Dropout(p=0.1, inplace=False)\n          (resid_dropout): Dropout(p=0.1, inplace=False)\n        )\n        (ln_2): LayerNorm((768,), eps=1e-05, elementwise_affine=True)\n        (mlp): MLP(\n          (c_fc): Conv1D()\n          (c_proj): Conv1D()\n          (dropout): Dropout(p=0.1, inplace=False)\n        )\n      )\n      (2): Block(\n        (ln_1): LayerNorm((768,), eps=1e-05, elementwise_affine=True)\n        (attn): Attention(\n          (c_attn): Conv1D()\n          (c_proj): Conv1D()\n          (attn_dropout): Dropout(p=0.1, inplace=False)\n          (resid_dropout): Dropout(p=0.1, inplace=False)\n        )\n        (ln_2): LayerNorm((768,), eps=1e-05, elementwise_affine=True)\n        (mlp): MLP(\n          (c_fc): Conv1D()\n          (c_proj): Conv1D()\n          (dropout): Dropout(p=0.1, inplace=False)\n        )\n      )\n      (3): Block(\n        (ln_1): LayerNorm((768,), eps=1e-05, elementwise_affine=True)\n        (attn): Attention(\n          (c_attn): Conv1D()\n          (c_proj): Conv1D()\n          (attn_dropout): Dropout(p=0.1, inplace=False)\n          (resid_dropout): Dropout(p=0.1, inplace=False)\n        )\n        (ln_2): LayerNorm((768,), eps=1e-05, elementwise_affine=True)\n        (mlp): MLP(\n          (c_fc): Conv1D()\n          (c_proj): Conv1D()\n          (dropout): Dropout(p=0.1, inplace=False)\n        )\n      )\n      (4): Block(\n        (ln_1): LayerNorm((768,), eps=1e-05, elementwise_affine=True)\n        (attn): Attention(\n          (c_attn): Conv1D()\n          (c_proj): Conv1D()\n          (attn_dropout): Dropout(p=0.1, inplace=False)\n          (resid_dropout): Dropout(p=0.1, inplace=False)\n        )\n        (ln_2): LayerNorm((768,), eps=1e-05, elementwise_affine=True)\n        (mlp): MLP(\n          (c_fc): Conv1D()\n          (c_proj): Conv1D()\n          (dropout): Dropout(p=0.1, inplace=False)\n        )\n      )\n      (5): Block(\n        (ln_1): LayerNorm((768,), eps=1e-05, elementwise_affine=True)\n        (attn): Attention(\n          (c_attn): Conv1D()\n          (c_proj): Conv1D()\n          (attn_dropout): Dropout(p=0.1, inplace=False)\n          (resid_dropout): Dropout(p=0.1, inplace=False)\n        )\n        (ln_2): LayerNorm((768,), eps=1e-05, elementwise_affine=True)\n        (mlp): MLP(\n          (c_fc): Conv1D()\n          (c_proj): Conv1D()\n          (dropout): Dropout(p=0.1, inplace=False)\n        )\n      )\n      (6): Block(\n        (ln_1): LayerNorm((768,), eps=1e-05, elementwise_affine=True)\n        (attn): Attention(\n          (c_attn): Conv1D()\n          (c_proj): Conv1D()\n          (attn_dropout): Dropout(p=0.1, inplace=False)\n          (resid_dropout): Dropout(p=0.1, inplace=False)\n        )\n        (ln_2): LayerNorm((768,), eps=1e-05, elementwise_affine=True)\n        (mlp): MLP(\n          (c_fc): Conv1D()\n          (c_proj): Conv1D()\n          (dropout): Dropout(p=0.1, inplace=False)\n        )\n      )\n      (7): Block(\n        (ln_1): LayerNorm((768,), eps=1e-05, elementwise_affine=True)\n        (attn): Attention(\n          (c_attn): Conv1D()\n          (c_proj): Conv1D()\n          (attn_dropout): Dropout(p=0.1, inplace=False)\n          (resid_dropout): Dropout(p=0.1, inplace=False)\n        )\n        (ln_2): LayerNorm((768,), eps=1e-05, elementwise_affine=True)\n        (mlp): MLP(\n          (c_fc): Conv1D()\n          (c_proj): Conv1D()\n          (dropout): Dropout(p=0.1, inplace=False)\n        )\n      )\n      (8): Block(\n        (ln_1): LayerNorm((768,), eps=1e-05, elementwise_affine=True)\n        (attn): Attention(\n          (c_attn): Conv1D()\n          (c_proj): Conv1D()\n          (attn_dropout): Dropout(p=0.1, inplace=False)\n          (resid_dropout): Dropout(p=0.1, inplace=False)\n        )\n        (ln_2): LayerNorm((768,), eps=1e-05, elementwise_affine=True)\n        (mlp): MLP(\n          (c_fc): Conv1D()\n          (c_proj): Conv1D()\n          (dropout): Dropout(p=0.1, inplace=False)\n        )\n      )\n      (9): Block(\n        (ln_1): LayerNorm((768,), eps=1e-05, elementwise_affine=True)\n        (attn): Attention(\n          (c_attn): Conv1D()\n          (c_proj): Conv1D()\n          (attn_dropout): Dropout(p=0.1, inplace=False)\n          (resid_dropout): Dropout(p=0.1, inplace=False)\n        )\n        (ln_2): LayerNorm((768,), eps=1e-05, elementwise_affine=True)\n        (mlp): MLP(\n          (c_fc): Conv1D()\n          (c_proj): Conv1D()\n          (dropout): Dropout(p=0.1, inplace=False)\n        )\n      )\n      (10): Block(\n        (ln_1): LayerNorm((768,), eps=1e-05, elementwise_affine=True)\n        (attn): Attention(\n          (c_attn): Conv1D()\n          (c_proj): Conv1D()\n          (attn_dropout): Dropout(p=0.1, inplace=False)\n          (resid_dropout): Dropout(p=0.1, inplace=False)\n        )\n        (ln_2): LayerNorm((768,), eps=1e-05, elementwise_affine=True)\n        (mlp): MLP(\n          (c_fc): Conv1D()\n          (c_proj): Conv1D()\n          (dropout): Dropout(p=0.1, inplace=False)\n        )\n      )\n      (11): Block(\n        (ln_1): LayerNorm((768,), eps=1e-05, elementwise_affine=True)\n        (attn): Attention(\n          (c_attn): Conv1D()\n          (c_proj): Conv1D()\n          (attn_dropout): Dropout(p=0.1, inplace=False)\n          (resid_dropout): Dropout(p=0.1, inplace=False)\n        )\n        (ln_2): LayerNorm((768,), eps=1e-05, elementwise_affine=True)\n        (mlp): MLP(\n          (c_fc): Conv1D()\n          (c_proj): Conv1D()\n          (dropout): Dropout(p=0.1, inplace=False)\n        )\n      )\n    )\n    (ln_f): LayerNorm((768,), eps=1e-05, elementwise_affine=True)\n  )\n  (lm_head): Linear(in_features=768, out_features=50261, bias=False)\n)", "parameters": [["transformer.wte.weight", [50261, 768]], ["transformer.wpe.weight", [1024, 768]], ["transformer.h.0.ln_1.weight", [768]], ["transformer.h.0.ln_1.bias", [768]], ["transformer.h.0.attn.c_attn.weight", [768, 2304]], ["transformer.h.0.attn.c_attn.bias", [2304]], ["transformer.h.0.attn.c_proj.weight", [768, 768]], ["transformer.h.0.a
…
